…
2025-12-24 09:42:37,915 - root - INFO - n_users_entities:  11477
2025-12-24 09:42:37,915 - root - INFO - n_relations:       14
2025-12-24 09:42:37,915 - root - INFO - n_h_list:          3277788
2025-12-24 09:42:37,916 - root - INFO - n_t_list:          3277788
2025-12-24 09:42:37,916 - root - INFO - n_r_list:          3277788
2025-12-24 09:42:37,916 - root - INFO - n_cf_train:        814616
2025-12-24 09:42:37,916 - root - INFO - n_cf_test:         4831
2025-12-24 09:42:37,916 - root - INFO - n_kg_train:        3277788
2025-12-24 09:42:39,702 - root - INFO - KGAT_2_dropoutnet(
  (entity_user_embed): Embedding(11477, 64, padding_idx=0)
  (relation_embed): Embedding(14, 64)
  (aggregator_layers): ModuleList(
    (0): Aggregator(
      (message_dropout): Dropout(p=0.1, inplace=False)
      (activation): LeakyReLU(negative_slope=0.01)
      (linear1): Linear(in_features=64, out_features=64, bias=True)
      (linear2): Linear(in_features=64, out_features=64, bias=True)
    )
    (1): Aggregator(
      (message_dropout): Dropout(p=0.1, inplace=False)
      (activation): LeakyReLU(negative_slope=0.01)
      (linear1): Linear(in_features=64, out_features=32, bias=True)
      (linear2): Linear(in_features=64, out_features=32, bias=True)
    )
    (2): Aggregator(
      (message_dropout): Dropout(p=0.1, inplace=False)
      (activation): LeakyReLU(negative_slope=0.01)
      (linear1): Linear(in_features=32, out_features=16, bias=True)
      (linear2): Linear(in_features=32, out_features=16, bias=True)
    )
  )
  (embedding_layer_category): ModuleList(
    (0): Embedding(44, 176, padding_idx=0)
    (1): Embedding(1, 176, padding_idx=0)
  )
  (dense_numeric_layers): ModuleList(
    (0): Linear(in_features=2, out_features=176, bias=True)
    (1): Linear(in_features=0, out_features=176, bias=True)
  )
  (u_layers): ModuleList(
    (0): TanHBlock(
      (layer): Linear(in_features=352, out_features=800, bias=True)
      (bn): BatchNorm1d(800, eps=0.001, momentum=0.01, affine=True, track_running_stats=True)
    )
    (1): TanHBlock(
      (layer): Linear(in_features=800, out_features=400, bias=True)
      (bn): BatchNorm1d(400, eps=0.001, momentum=0.01, affine=True, track_running_stats=True)
    )
  )
  (i_layers): ModuleList(
    (0): TanHBlock(
      (layer): Linear(in_features=352, out_features=800, bias=True)
      (bn): BatchNorm1d(800, eps=0.001, momentum=0.01, affine=True, track_running_stats=True)
    )
    (1): TanHBlock(
      (layer): Linear(in_features=800, out_features=400, bias=True)
      (bn): BatchNorm1d(400, eps=0.001, momentum=0.01, affine=True, track_running_stats=True)
    )
  )
)
2025-12-24 09:42:44,296 - root - INFO - CF Training: Epoch 0001 Total Iter 0010 | Total Time 3.2s | Iter Mean Loss 0.6878
2025-12-24 09:42:44,296 - root - INFO - CF Training for cold-start users phase: Epoch 0001 Total Iter 0010 | Total Time 3.2s | Iter Mean Loss 0.6878
2025-12-24 09:42:44,313 - root - INFO - Update Attention: Epoch 0001 | Total Time 0.0s
…
