…
2025-12-24 04:23:57,494 - root - INFO - n_users_entities:  11477
2025-12-24 04:23:57,494 - root - INFO - n_relations:       14
2025-12-24 04:23:57,495 - root - INFO - n_h_list:          3277788
2025-12-24 04:23:57,495 - root - INFO - n_t_list:          3277788
2025-12-24 04:23:57,495 - root - INFO - n_r_list:          3277788
2025-12-24 04:23:57,495 - root - INFO - n_cf_train:        814616
2025-12-24 04:23:57,495 - root - INFO - n_cf_test:         4831
2025-12-24 04:23:57,495 - root - INFO - n_kg_train:        3277788
2025-12-24 04:24:04,919 - root - INFO - GIFT4Rec_simple_kgat(
  (entity_user_embed): Embedding(11477, 64, padding_idx=0)
  (relation_embed): Embedding(14, 64)
  (aggregator_layers): ModuleList(
    (0): Aggregator(
      (message_dropout): Dropout(p=0.1, inplace=False)
      (activation): LeakyReLU(negative_slope=0.01)
      (linear1): Linear(in_features=64, out_features=64, bias=True)
      (linear2): Linear(in_features=64, out_features=64, bias=True)
    )
    (1): Aggregator(
      (message_dropout): Dropout(p=0.1, inplace=False)
      (activation): LeakyReLU(negative_slope=0.01)
      (linear1): Linear(in_features=64, out_features=32, bias=True)
      (linear2): Linear(in_features=64, out_features=32, bias=True)
    )
    (2): Aggregator(
      (message_dropout): Dropout(p=0.1, inplace=False)
      (activation): LeakyReLU(negative_slope=0.01)
      (linear1): Linear(in_features=32, out_features=16, bias=True)
      (linear2): Linear(in_features=32, out_features=16, bias=True)
    )
  )
  (embedding_layer_category): ModuleList(
    (0): Embedding(44, 176, padding_idx=0)
    (1): Embedding(1, 176, padding_idx=0)
  )
  (dense_numeric_layers): ModuleList(
    (0): Linear(in_features=2, out_features=176, bias=True)
    (1): Linear(in_features=0, out_features=176, bias=True)
  )
  (weight_averaged_features_layer): ModuleList(
    (0-1): 2 x MaskLinear(
      in_features=352, out_features=352, bias=True
      (mask_weights): ParameterList(
          (0): Parameter containing: [torch.float32 of size 352x352 (cuda:0)]
          (1): Parameter containing: [torch.float32 of size 352x352 (cuda:0)]
      )
      (mask_biases): ParameterList(
…
